cg_calculator_lstm.pt (torch, 48943 bytes, 5 tensors)

weight_ih_l0 f4 [200, 5]
00000000: 978b 5bbe 2e00 8bbd 61ff d33c a6ed 803e
00000010: 9338 a53d 2869 f1bd e3f8 0dbe 1308 9ebd
00000020: 5bf0 293e fa28 49bd 1a70 53bc c054 00be
00000030: f12c 9fbe 8600 46bf a376 9a3d f27e 9cbe
00000040: 490b 263e 22ca 953b d2f0 7fbd 0335 913d
00000050: 2b8d 773e 1cee ecbd f29b ea3e 7f29 10bf
00000060: 1c2c e8bc f3b7 c7bd 04c2 58be a3fb 99be
00000070: afd2 4f3d 08c6 14be 515d 153e 647f 8fbd
00000080: f72e 1f3d 45ae a6bd 77e0 c63c 40bd dbbd
00000090: 40c5 053e 5b89 05be c202 fc3d cc7c 62bd
000000a0: 4c82 c43d 2822 d83d ff59 4f3e adf7 12be
000000b0: 1dbf 1abd 9471 943e 48af ad3b d8ee 1f3e
000000c0: f3fb 2abe 7608 e53d 6d2a a23d eb39 833d
000000d0: f321 a4be a704 f3be d442 83bd da19 8cbd
000000e0: fe41 d3bd 83e0 093c be5e 323e 164a 03be
000000f0: 1f4c 2bbd 95e9 60be 6cec e0bd 5a1b 13bc
00000100: 4a30 7f3d 7f22 f73d 6e81 5a3c 73d4 23be
00000110: 4736 31be ab27 93bd 5a71 acbd 232b 433b
00000120: d92a 2f3c 8cb1 1bbf 2ecd eebd 1f7f 233e
00000130: 0041 2bbe beb1 833e 15e8 243e 23b7 33be
00000140: 7be7 debd 4107 883d 015a 8cbb c126 f03e
00000150: 66b1 2fbe 98d1 203e f2b9 18be 5ae0 1e3e
00000160: 4405 c0bd 3f42 76bd fb48 713d f3da 0cbe
00000170: 80c1 bb3d d61c 91bd aed7 51bd 1159 1abc
00000180: f525 1e3d de49 a5bd 7f0a 29bc 9417 e4bd
00000190: e03e febd fad9 e8bd 990c 9b3d 9321 d23d
000001a0: 9608 a23d 18c4 bf3d 3b09 a83d 42b3 b4bd
000001b0: 6007 90be b30a edbb 1afc 98be dacc 72be
000001c0: 75f8 babc dcec 47bd 2d97 a8be 76d4 d9bd
000001d0: 4d67 6cbd 9dec 36be e4ba 0d3e a900 583c
000001e0: ac57 f93d 0d4c 6fbe 6ee7 223e 7a24 1c3e
000001f0: 3e3f 07be b527 bd3d 4817 c83d 44db 163e
00000200: 9eeb 80bd cc35 203d fac1 8bbd b3bd ec3c
00000210: d821 ebbd d152 d9bd 6644 fe3d 2fbb 20bd
00000220: 4577 9d3d e02f 313e 1240 2fbd a240 60bc
00000230: dbb0 8a3d 1b08 a53d 6a70 903d 47f7 71be
00000240: 1a5e 10be 4703 99bd f1a3 273d 2f17 173d
00000250: 85a9 613e 1352 e8bd c5c4 0dbd 3ef6 d3bd
00000260: a948 b5bd e285 d13d 2f96 b1bd 5d1c 093b
00000270: 16a6 b2bd a70b 6a3c cc95 13be c60a e4bc
00000280: c452 44be 96d6 523c 3854 613e e447 273f
00000290: 65a5 b8bb f2fc 743d 2d99 043e 811d c0bd
000002a0: 1095 573e 9810 92bb 1c22 2bbf c03e a9bd
000002b0: 3741 0b3e af6b 8e3e 2829 a1be 4b8d 17bd
000002c0: 99cf 23be 0633 173f a0d9 633e e494 0fbf
000002d0: 51cf 113f 67d5 043f 5e9f a03f 48bc 0dbf
000002e0: e9e8 b13d d5d0 02bd 898a 7a3d b609 0c3d
000002f0: f7dc 813e 3a82 9dbe 59d3 5f3d 98ab 5ebe
00000300: 3767 223d 866f 3d3e c45e d03d c694 013e
00000310: ad15 99bc a53b a3bd 3641 7ebd b516 3a3e
00000320: 7390 13be 937c 05bc f402 ed3d 11e3 b03d
00000330: 13a0 33be b3e0 f4be 49fc 49bd 4692 3e3d
00000340: c98d 95bd 1a17 e33d 1ffb d1bd 1cb8 a0bd
00000350: 8731 b0bd 0bce 4dbd e71a 9fbd fd35 31bd
00000360: 34e9 d13e 576c bd3d cede 40be 2d91 4dbe
00000370: 1484 8e3d a28c 183d c909 b43d b183 2b3e
00000380: b285 96bc 94ec ab3d bae8 07bf 4099 0f3e
00000390: d827 68bc 75d7 77be 0198 8dbd 38be cc3d
000003a0: 147d b33d 89e8 9e3e c99c 1f3e c4cf af3c
000003b0: 2aa2 863b dc50 b53d dad0 033e 98e2 7a3e
000003c0: 5266 893d e291 7dbe 7ade 2d3e 7aa1 0c3e
000003d0: 56d9 f3bd ba2a 2d3e 7a38 a93c 80b8 f23d
000003e0: f350 89be 86b4 6f3d dbb6 89be a532 c2bc
000003f0: bcbb ac3d 30f0 083f fd53 38be 73dd 72bc
-0.21439968 -0.06787144 0.02587861 0.2518131 0.08067431 -0.11787635 -0.13864474 -0.07716384
0.16595595 -0.049111344 -0.012905145 -0.1253233 -0.31088975 -0.7734455 0.075421594 -0.30565602
0.16215242 0.0045712152 -0.062485524 0.07090189 0.24174945 -0.11568853 0.45822102 -0.5631332
-0.028341345 -0.097518824 -0.21167761 -0.30074796 0.050738033 -0.14528668 0.14586379 -0.0700672
0.03886315 -0.08138708 0.024276955 -0.10729456 0.13063526 -0.13040678 0.123052135 -0.055294797
0.09595165 0.1055339 0.20249175 -0.14352293 -0.037779916 0.28992903 0.005300436 0.15618455
-0.16697673 0.111832544 0.07918248 0.06407531 -0.3205715 -0.47464487 -0.06409231 -0.06840868
-0.103153214 0.008415344 0.17418954 -0.1282123 -0.04182064 -0.21964104 -0.10982594 -0.008978689
0.06230191 0.120671265 0.0133365225 -0.15999012 -0.17305861 -0.071853004 -0.084200576 0.002978035
0.010691368 -0.6081779 -0.11660229 0.15966462 -0.16724014 0.25721544 0.16104157 -0.1755033
-0.10883995 0.066420086 -0.0042831902 0.46904567 -0.17157516 0.15704954 -0.14914683 0.15515271
-0.09376004 -0.06012177 0.05890749 -0.13755397 0.091677666 -0.07085578 -0.05123108 -0.009420649
0.038610417 -0.0807073 -0.010317444 -0.1113731 -0.12414336 -0.11369701 0.07570762 0.1026031
0.07911794 0.09363574 0.082048856 -0.08823253 -0.28130627 -0.0072339415 -0.29879838 -0.23710957
-0.022823552 -0.04880987 -0.32927838 -0.10636227 -0.057715703 -0.17863698 0.13840824 0.013183751
0.12174925 -0.23368855 0.15908596 0.1524829 -0.13207719 0.09236089 0.097700655 0.1473208
-0.062949404 0.039113805 -0.068241075 0.02889905 -0.114810646 -0.10611499 0.1241539 -0.039241012
0.076887645 0.17303419 -0.04278571 -0.013687285 0.06772014 0.080581866 0.07052691 -0.23629485
-0.14098397 -0.07471328 0.04092783 0.036887344 0.22037323 -0.113437794 -0.034611482 -0.10349701
-0.088517494 0.10230614 -0.08671223 0.0020921447 -0.08723085 0.014285005 -0.14412612 -0.027837168
-0.19172198 0.012868544 0.22004783 0.6534407 -0.005634951 0.05981154 0.12949057 -0.093806274
0.21052957 -0.0044575445 -0.6684892 -0.08263922 0.13599096 0.2781653 -0.31476712 -0.03699998
-0.15997161 0.5906223 0.22250986 -0.56086564 0.56956965 0.51888126 1.2548635 -0.5536542
0.08687002 -0.03193744 0.061167274 0.03418895 0.25363895 -0.30763417 0.054644916 -0.21745145
0.039649215 0.18499574 0.10174325 0.12654409 -0.018687094 -0.07970361 -0.06207391 0.18172725
-0.14410572 -0.008147377 0.11572829 0.086370595 -0.17541532 -0.47827682 -0.049312863 0.046526216
-0.07302434 0.11088391 -0.10252976 -0.07847616 -0.086031966 -0.050245326 -0.07768803 -0.043264378
0.40998232 0.0924918 -0.18834993 -0.20074911 0.06958786 0.037243493 0.08790929 0.16749455
-0.018374298 0.08394733 -0.5308949 0.14023304 -0.014169656 -0.24203284 -0.06913758 0.09997219
0.08764091 0.31036785 0.15587153 0.021461375 0.004108687 0.08853313 0.1287264 0.24500501
0.06708969 -0.24762681 0.169794 0.13733473 -0.11906688 0.1691083 0.020656813 0.11851597
-0.26819572 0.05852177 -0.2689732 -0.02370579 0.08434245 0.534915 -0.18000789 -0.014823305

weight_hh_l0 f4 [200, 50]
00000000: 7071 dabe 66b3 ce3c 0082 853c 034e 013e
00000010: 5b48 4ebf dab0 3e3e ee61 993d 11c4 3cbd
00000020: 4f18 52bd b4bf edbd eb3c 813d dbd2 f0bd
00000030: 8ddf 86bd d9e0 0a3e 5b34 ebbe bb3f 523f
00000040: e876 8b3c 970c e4bc 6158 85bd 24d2 1abe
00000050: 0760 45bf b72a 603b 202b a53e 3aa7 5bbc
00000060: 3fdc a83d 4cec 18bd d75a fdbc a238 75be
00000070: 1909 44be f080 36bf 998d 193e ba1a de3c
00000080: eae6 02bf 6fc6 a83d f295 ed3e 6a4e e23e
00000090: 1670 0fbf 03a9 65bc f752 9e3c e8de b1be
000000a0: d465 20be 2639 e1bc 041f e93d 8fae 50be
000000b0: f99e a5be 6402 5bbe 5519 cb3e 1a01 4fbd
000000c0: 06b3 c4be aeab ed3e dc10 f8bc 9997 6c3d
000000d0: bfd8 4e3e 62b9 9f3d 59b1 2e3e f336 de3e
000000e0: 3275 04bc 2aab a63a 30c6 1c3e 212d 0b3e
000000f0: 593d 95bd 5a8b 4abe 793c 243d 5b4f 1b3d
00000100: 14ec 153e f3e5 b13d fc74 0c3e 2b73 90bd
00000110: 100a 303d 91ff 93bd a6aa 1cbe 31bf 57bd
00000120: 584f cb3d 1391 edbd fff4 2e3d c13c 32bc
00000130: 9ae2 fdbd 41c3 d4bc a433 363d 90bf 37be
00000140: 0edd fcbd a1c3 703b 2258 1c3e 8735 85bd
00000150: 2961 ed3d f8fb 983d ba26 123e e68b c93d
00000160: bb2b fdbd fd7b 5f3e e702 d3bd 0db3 923d
00000170: 14fa 05bd be6a 43bb caed b43c 0bff 613e
00000180: 5b37 b03b 0ccd 4dbe c453 11bd 2e22 96bd
00000190: 79a0 913e 2345 173c cd3c a6bc 9b82 c83d
000001a0: d1cb 593e 46ef 86be 7279 e83d 9884 ef3d
000001b0: 24ad f23d 58a6 89bd ce40 de3d fdd1 6cbd
000001c0: 07b5 033e be72 e03d d129 823e db89 3ebe
000001d0: 79bf 2d3e 7ade 7d3d 8ecd 6f3d f329 703d
000001e0: 18fe 0e3f eed5 0cbe 5e5a c3bd 1081 883e
000001f0: a325 9cbb 0777 4abe e072 df3d d5bb 263e
00000200: e3ec 22bd 419e 5a3f abe9 3bbe 47de afbd
00000210: 6eb4 4b3e 3e9d 323c 1741 7fbe 4276 ccbe
00000220: 2ec8 0f3f 6247 623b 0a84 0e3e 5b9e cdbb
00000230: d9b9 8ebc a3ad bdbd 3a34 15be 9a6e 033e
00000240: 87ab 0fbc e660 513e a247 b3bd bcd0 443d
00000250: 315c a23d c795 b2bd 3b51 cabd fb0a 58bd
00000260: ff5c 45bd e416 cd3c 5d0a 4fbe bc8c 0abe
00000270: 2a19 9d3d 1aa7 043e e826 8ebd 9943 493d
00000280: 07bd 0d3b f4fb c83d af0b dfbd 9829 e8bc
00000290: 2c84 a83d 275f 3c3d 1145 a8bd 7eb0 3ebd
000002a0: 41a6 ba3d ec97 36bd 61c8 85be f6f9 d73c
000002b0: e268 e8bd f54c 97bd f2ef eebd f1c3 f03e
000002c0: 30c0 d2bd f505 21be 8092 8d3d d234 9c3b
000002d0: babe 25bd 7c3a 60bd 733e f3bd 8e24 74bd
000002e0: 731e bb3d 2be3 39be 10ff 99be fcc3 d03c
000002f0: b661 e93d 30b9 8b3d ca07 dc3d 48dd 9cbd
00000300: 6e17 473d b1f0 42ba 6d6f 1fbd 648d 0c3a
00000310: 9f24 503d 5992 8ebd 1bf5 91bd 9830 e0bd
00000320: faba 983e 7c99 043e 8c4a d8be 62d3 3dbf
00000330: a8a7 933d 4b2c dfbe bf71 27bf bd88 0abf
00000340: 6adb 583f 34fc f53e b2cb e0be a945 d03e
00000350: c890 dd3e a118 053f 8318 18be 6a04 febe
00000360: 5586 3ebe 192b d03e dd05 083f af9b e2be
00000370: 0f96 b13f 17a8 3d3f 7477 a9bc a5c8 5b3e
00000380: 3d2b bd3d 40a1 9dbf 10c5 f03e 5bbb 4b3f
00000390: 55e5 063f da3c f33e 3cf9 a63e 81ad 773e
000003a0: 7519 0fbe 1551 cc3e 3b5b 6a3e 3ba1 ddbe
000003b0: 1970 1b3e 9cf1 6bbe 63ec 05bf ae8e b6bc
000003c0: a366 a93e d7dd 693f 5310 75be e154 df3e
000003d0: 9b01 9c3e 1aba b8be 262e 2c3e 5619 953c
000003e0: 4542 30be 1350 91bd 50aa 603f c381 f43d
000003f0: 04d2 ef3e aede 9fbc 7346 3040 04a9 cf3c
-0.4266467 0.025232028 0.01629734 0.12627415 -0.80579156 0.18622151 0.07489382 -0.04608542
-0.051292714 -0.1160883 0.06310447 -0.117589675 -0.06585608 0.13562335 -0.45938382 0.82128495
0.017024472 -0.027838035 -0.065109976 -0.15119225 -0.7709965 0.0034205148 0.32259464 -0.013406569
0.082451336 -0.037334725 -0.030927105 -0.23947385 -0.19144095 -0.71290493 0.14995421 0.027112354
-0.51133597 0.08240973 0.46403462 0.4420045 -0.56030405 -0.014017346 0.01932667 -0.34740376
-0.15663844 -0.02749307 0.11382869 -0.20379089 -0.3234785 -0.2138763 0.39667764 -0.05053816
-0.38417834 0.46420044 -0.030281477 0.057761762 0.2019987 0.07799031 0.1705984 0.43401298
-0.008084582 0.0012715806 0.15309978 0.13591434 -0.07287092 -0.19779721 0.040096734 0.037917476
0.14640838 0.086864375 0.13716501 -0.070532165 0.042978346 -0.0722648 -0.15299472 -0.05267257
0.09927243 -0.11599936 0.042714115 -0.010878743 -0.123967364 -0.02597201 0.044482842 -0.17944169
-0.1234685 0.0036737698 0.15267995 -0.0650435 0.115907975 0.07469934 0.14272586 0.09841137
-0.123618565 0.21824642 -0.10303288 0.071630575 -0.032709196 -0.0029818262 0.022086043 0.22069947
0.0053776926 -0.2009775 -0.035480276 -0.07330738 0.28442743 0.009232792 -0.020292664 0.09790536
0.21269156 -0.26354426 0.11351289 0.11695212 0.1184943 -0.06721181 0.10852204 -0.057817448
0.12862025 0.10959385 0.25422528 -0.18607275 0.16967572 0.06197975 0.05854564 0.058633756
0.55856466 -0.13753483 -0.095387205 0.26660967 -0.004765229 -0.19771968 0.109105825 0.1628259
-0.039776694 0.85397726 -0.18350856 -0.08587318 0.19893047 0.010901747 -0.24927174 -0.39933974
0.56164825 0.003452741 0.13917556 -0.006274981 -0.017422603 -0.09261634 -0.14570704 0.1283516
-0.008768923 0.2044712 -0.08753897 0.048050627 0.0792774 -0.08719974 -0.09878775 -0.052744847
-0.04818439 0.02503533 -0.20218797 -0.13530248 0.07670815 0.12954369 -0.069410145 0.04913673
0.0021627562 0.09813681 -0.108909 -0.028340146 0.08228335 0.04598918 -0.08216298 -0.046555035
0.09113742 -0.044578478 -0.2612944 0.026364308 -0.1134813 -0.07387725 -0.1166686 0.4702449
-0.10290563 -0.15724929 0.06912708 0.004767039 -0.040465094 -0.054743275 -0.118771456 -0.059605174
0.09136667 -0.18153064 -0.3007741 0.025484078 0.1139559 0.06822431 0.10743673 -0.076593935
0.04860633 -0.00074363785 -0.038924623 0.0005361645 0.050816175 -0.06961507 -0.07126828 -0.109467685
0.29830152 0.12949175 -0.42244375 -0.7415067 0.07209712 -0.4358848 -0.6540794 -0.54114896
0.847098 0.48043978 -0.43905407 0.40678146 0.43274522 0.51990706 -0.148531 -0.49612743
-0.18605931 0.4065788 0.53133947 -0.44259402 1.3873919 0.7408461 -0.020686843 0.21463259
0.09236763 -1.2314835 0.47025347 0.79582757 0.5269368 0.47507364 0.32612026 0.2418728
-0.13974555 0.3990561 0.22886364 -0.43287072 0.1517948 -0.23041385 -0.5231382 -0.022284832
0.33086118 0.91354126 -0.23932008 0.43619445 0.30469975 -0.36079484 0.16814479 0.018200558
-0.1721278 -0.07095351 0.87759876 0.119388126 0.46839917 -0.019515362 2.7542999 0.025349148

bias_ih_l0 f4 [200]
00000000: 62c4 233e afdd 99bc 7f8d 92bc fa67 5a3d
00000010: 143e e43e a33b 85be 6d33 afbd 41c0 bebd
00000020: ca55 d83d 05a3 10bd 6fc8 66bd cf12 883c
00000030: a72a 33be 7d19 753d c2ec 673c 23fa 8f3e
00000040: 8013 e2bd 65a2 8ebd bc16 e33d f749 d0bd
00000050: b87c b23d b7b9 c8bd 34ef 353d 8611 98be
00000060: d890 553e a9f7 14bf 8637 273d 09e5 b2bc
00000070: 8add dfbd 1926 883e 61f9 1abb 9d6d 71bd
00000080: 0a1c 813e 48d0 7ebd 821d 3a3c c02b ad3d
00000090: de12 053f da98 95bc ddd8 f3b8 6763 9abd
000000a0: 9c4e 8dbd f48f 453d ffb3 dc3b bac9 5bbd
000000b0: 44c8 083d d4d0 213e 97ec 79bd 4996 1cbc
000000c0: 9968 fa3c 6a04 88bd fb34 c6bd a331 74bd
000000d0: e932 a0bd 380b c0bd dd74 c9bd 42f0 95bd
000000e0: a902 56be 5473 a7bc f376 10be 93bd 07be
000000f0: b60b 00be 93f9 0abe 36e6 8f3d c767 b73d
00000100: a7cd 81bc 7867 cebd cf28 a4bd 33e0 0cbd
00000110: 8d76 633d 9d87 cebd a3bb 59be fe15 b93d
00000120: e3a3 b43d 32f2 24be 31bb a3bd 0e5c 3b3c
00000130: 347f 81bd c357 6abd 2b0b 3f3d 5a51 45be
00000140: e242 4b3d f51a 79bd 8809 b0bd 360d adbd
00000150: 0a31 61bd e0a1 0fbe 7e32 09bd 475f 45be
00000160: 4ba4 08be fd63 883d 591a 44bd 7563 d1bc
00000170: 5245 9e3d b3f9 ce3b bfc4 413d bfd4 8ebd
00000180: 84a1 ecbd f347 19bd 1273 6c3d f500 3fbd
00000190: b868 b23d d18d d23d ae00 443d c749 acbd
000001a0: b0f3 743d 5cf0 fa3c 7f1f baba a153 2a3c
000001b0: 6bc0 953d 2482 0b3d 18e7 d4bd 1c2f 0a3c
000001c0: 99fd 3e3d 0fd7 983d 4fe1 65bb 58bd 473c
000001d0: 371a cebd a13e 923d 1cb5 5c3d 7432 e8bd
000001e0: 9d88 babd 26aa 093e ae92 69bd 422c 95bb
000001f0: 550a 1d3d d6bf dfbd 08d8 dbbb f51d 26bc
00000200: 93e5 b13d a49b aa3d 92a4 c83d aad4 b93d
00000210: 1cc0 5d3d 049c 1b3d a82f 4abd 58e7 b33c
00000220: 1ca9 93bc 23ba 293c e835 dfbc fced 91bd
00000230: 4fe2 b73d ada5 05be a031 b7bd e804 933d
00000240: 1697 083e 4472 bfbd e86e ebbd c3cc 42bb
00000250: ad61 0d3d ff9a 7b3d 1a0e 2d3e 93e4 dd3c
00000260: fc77 00be e611 15bc c87e f03e bf70 a13b
00000270: 9c42 9fbd 110a 003e 48b5 683d 1822 0d3e
00000280: 635c 81bd 5228 66bd 05b6 14bd b2c8 c73d
00000290: adf9 1fbe d809 c73e 8995 213d 27d6 413d
000002a0: f850 9d3b 1616 af3d 0726 0c3e b206 a13d
000002b0: 60ac f5bb ea70 c3b9 59a3 553e f45b 133e
000002c0: 72dc dd3d 0a21 393d 62f5 99bd 639a 853d
000002d0: 4a83 f9bd 31a5 b9bd 6af3 303e fee6 163d
000002e0: 49d4 1c3e ce78 733e 70f9 f53e cf1f be3d
000002f0: 2e92 5b3d 4c27 393d 1524 95bd 0844 d13d
00000300: fe68 0abe 4d7c fd3d 34c1 dbbd 7d30 593e
00000310: d567 6c3c 78f4 093e b3f1 163e 264e 053e
0.15992883 -0.018782465 -0.017889736 0.053321816 0.44578612 -0.26022062 -0.085547306 -0.09314013
0.10563238 -0.035311718 -0.056343492 0.016610531 -0.1749674 0.05983876 0.014155569 0.28120527
-0.110388756 -0.06964568 0.110883206 -0.10170358 0.087151945 -0.09801047 0.044417575 -0.2970087
0.20856035 -0.581904 0.040824436 -0.021837728 -0.10930927 0.26591566 -0.0023647177 -0.058942426
0.25216705 -0.06221035 0.011359574 0.0845561 0.51981914 -0.018261362 -0.00011627537 -0.07538491
-0.06899759 0.048232988 0.0067353244 -0.05365918 0.033394113 0.15802318 -0.061016645 -0.009557315
0.030567454 -0.06641467 -0.09678074 -0.05961765 -0.0782221 -0.0937714 -0.09836743 -0.07321216
-0.20899452 -0.020440735 -0.14107876 -0.1325591 -0.12504467 -0.13571768 0.07026331 0.08955341
-0.015845133 -0.10078329 -0.08015596 -0.0343935 0.05553298 -0.1008446 -0.21262984 0.09037398
0.088203214 -0.16108015 -0.07994688 0.011435522 -0.0632309 -0.057212602 0.04664151 -0.19269314
0.04962433 -0.060816724 -0.08595568 -0.084497854 -0.054978408 -0.14026594 -0.03349542 -0.19274627
-0.13343923 0.06659696 -0.04787669 -0.02556012 0.077280656 0.0063163876 0.047306772 -0.06974172
-0.11554244 -0.03742213 0.057726927 -0.046631772 0.0871138 0.102809556 0.04785221 -0.084125094
0.05980271 0.03063219 -0.001420006 0.010395915 0.073120914 0.03405966 -0.1039564 0.008434083
0.04662857 0.07462894 -0.0035076921 0.012191139 -0.10063594 0.07140852 0.053883657 -0.11337748
-0.09108088 0.13443813 -0.05702465 -0.004552395 0.03833993 -0.10925262 -0.0067091025 -0.010138978
0.08686366 0.08330467 0.09797014 0.090737656 0.054138288 0.037990585 -0.049361855 0.0219609
-0.018024974 0.01035932 -0.027247384 -0.0712547 0.08978712 -0.13051482 -0.08945012 0.0717867
0.13338885 -0.09347966 -0.11495763 -0.0029724098 0.03451698 0.061427113 0.1689991 0.027086532
-0.1254577 -0.009098506 0.46971726 0.0049267705 -0.077763766 0.1250384 0.05681351 0.13782537
-0.063164495 -0.056190796 -0.0363064 0.097550765 -0.15622588 0.38874698 0.03944925 0.047323372
0.004800912 0.085491344 0.13686381 0.07862605 -0.0074973553 -0.00037277426 0.20863093 0.14390546
0.10833062 0.045197524 -0.07517506 0.065235876 -0.121832445 -0.09064711 0.17280355 0.036841385
0.15315355 0.23776552 0.48041868 0.09283411 0.053606205 0.045203492 -0.07282273 0.10218054
-0.13516614 0.12377224 -0.1073021 0.21209903 0.014429052 0.13472164 0.14740638 0.13018093

bias_hh_l0 f4 [200]
00000000: dfe6 2b3d 00f4 b63b 244c 9ebd a88e 23be
00000010: 4212 c53e cf1e 86be 8b3b 9d3d 86a8 cbbd
00000020: dafd 8abd f51f e23d b66d 223e 7dac 6b3d
00000030: da33 b6bd 1eda 06be 82c4 d03d 8299 e43e
00000040: 03fe a93d f9bc aa3c 3f17 f2bd 515b 0b3b
00000050: 6fc3 6e3e 5cba 16be 6c2d 783c e203 53be
00000060: 6096 1f3e 725e e9be 44f1 ae3d a36f 9e3d
00000070: afcc 2f3d 5402 943e 00a3 9fbd aa97 d3bd
00000080: 6d02 6a3e 8771 27be c3e3 3b3e ccd9 4c3e
00000090: 1f9a e23e 3c8d d2bd ad04 d4bd b4d8 40bd
000000a0: 0188 9cbc 362c 8d3d 82f9 823d 51c8 cabd
000000b0: 1a40 f53d 61d9 263e 3a9c cf3d 03bd e63c
000000c0: 1132 0b3e 9de3 90bd eff1 d83d 4f16 bebd
000000d0: 1700 a93d 63ff 0abe c681 16be e5e3 80be
000000e0: 7f0a c0bd 2157 16be e7c3 083d 5ff3 e93d
000000f0: a279 493d a0e5 253a ebf5 1ebe e027 b53d
00000100: df65 5f3d 912a d4bd 77db ffbc 7369 8ebd
00000110: 9306 25bd 6515 eebd 2cf4 3bbe bc0d 703d
00000120: 87ed 3cbd c396 a7be 6986 56bc b450 93bd
00000130: 0fec 91bd 8a61 abbd f0ca b93c 8973 44be
00000140: 885b a2bd 6b84 07be 3fa3 2ebe 6981 d5bd
00000150: 7ce3 0dbd b50a 6cbe ced6 80bd 0a16 663d
00000160: 042d 29be 4d47 893c a68d 803d 183a 8ebc
00000170: a4a5 10bd 9376 643d a989 ff3d 7a6e 44bd
00000180: d25c 7cbe 9641 3bbe a91b 35bc 39f7 b63d
00000190: 1e49 aabd a698 b73d 4163 f9bd 51fe 39bc
000001a0: 13e8 613c 6d60 07bd d56d 59bd b2dd e7bd
000001b0: b048 06bd b8b1 123d d801 953a f382 563d
000001c0: 98e1 863d f942 e83d 52b0 abbd e50e adbd
000001d0: 50ba 70bc c44a c439 6c08 d93d 2148 afbd
000001e0: 1905 123e f817 583c c7af bebd 0017 563d
000001f0: 263c eebd 2d30 c43d eb61 5a3d 1952 80bd
00000200: 7751 b53b a1b0 6fbd 7f03 e13d e42e af3d
00000210: a5e2 68bc 855c c43d 449d 463d 6283 93bd
00000220: ee17 1a3d c06f 92bd 5258 8cbb 0b58 553d
00000230: 7c7f 9a3c 77e2 133e 25eb e6bc 9c41 2ebd
00000240: 3b55 a7bd 740f bd3d 24d5 8c3b 845e a33d
00000250: 2dbc 6ebd ea87 42bd c289 f93c 6762 25be
00000260: a05a 913b bb5b 27be 0f3c d13e 6b7f 3ebe
00000270: 47bb 3c3e e345 12bc 1a85 1abd 4a09 df3d
00000280: 58a1 283e 28f4 c6bd 91d7 a13c 89f5 3d3d
00000290: 2367 0abc eee3 533e 046a 253d afa0 903d
000002a0: 98de 08be c356 cbbd 267e a73d af3f 153d
000002b0: 667a bf3c 1fab d9bd 9456 493e b930 7dbd
000002c0: 0c16 713c e8f4 efbc 352f 61bd 648e 4d3e
000002d0: 3426 cd3b 2e39 be3d d328 8b3c 322e 61bd
000002e0: e98f b43e 6c35 d93d 77fb d13e 357d dbbd
000002f0: 4ebe 1ebe 4f5c 973d 6031 c83c 5a93 b7bd
00000300: 49c1 f63c 0271 e63d 1ae1 44bd 4707 123e
00000310: 8878 1c3e c39d ce3d 544e 823e 3f4f 5c3a
0.041968223 0.0055832863 -0.077293664 -0.15972388 0.38490492 -0.2619538 0.076773725 -0.09944253
-0.067866996 0.110412516 0.15862164 0.057537545 -0.08896609 -0.13169143 0.10193731 0.44648367
0.08300402 0.020842062 -0.1182084 0.0021264146 0.2331674 -0.14719528 0.015147548 -0.2060695
0.15584707 -0.4557987 0.085421115 0.07736137 0.04291981 0.28908026 -0.07794762 -0.10331662
0.22852488 -0.16351901 0.18348603 0.20004958 0.4425821 -0.102808446 -0.10352454 -0.047081664
-0.01910782 0.06893198 0.06395246 -0.099014886 0.11975117 0.16293861 0.1013722 0.0281663
0.13593318 -0.07074664 0.1059302 -0.09281599 0.0825197 -0.13573985 -0.14697942 -0.2517387
-0.09377002 -0.14681675 0.033389952 0.114233725 0.049188264 0.0006328467 -0.15523498 0.08845496
0.05454051 -0.103596814 -0.031232579 -0.069537066 -0.040289473 -0.116251744 -0.18354863 0.058606848
-0.04612496 -0.3273221 -0.013093569 -0.07193127 -0.07125103 -0.083682135 0.022679776 -0.19184698
-0.079276145 -0.13234107 -0.17054461 -0.10425074 -0.034640774 -0.2305096 -0.06290971 0.05617336
-0.16521078 0.016757632 0.06277017 -0.017361686 -0.035314217 0.055777144 0.124774285 -0.04795692
-0.24644783 -0.18286738 -0.011053958 0.08933873 -0.08314727 0.08964662 -0.12177134 -0.011352138
0.013788241 -0.033050943 -0.05308326 -0.11321582 -0.032784164 0.035814017 0.0011368347 0.052370977
0.06585997 0.11340899 -0.0838324 -0.084501065 -0.014692858 0.00037439738 0.105973095 -0.08558679
0.14259757 0.013189308 -0.093108706 0.05226803 -0.11632566 0.09579501 0.053316038 -0.06265659
0.005533393 -0.058518056 0.10986995 0.085538656 -0.0142141925 0.09587959 0.048489824 -0.07202794
0.037620477 -0.07150221 -0.0042829895 0.052085917 0.018859617 0.14441858 -0.028188298 -0.04254304
-0.08170553 0.09231463 0.0042978693 0.07977012 -0.058284927 -0.0474929 0.030461196 -0.16150819
0.004435852 -0.16343586 0.40866134 -0.18603294 0.18430816 -0.008927795 -0.03772459 0.108904436
0.16467798 -0.09714538 0.01975611 0.04637674 -0.008447441 0.20692417 0.040384308 0.07061898
-0.13366163 -0.09928658 0.08178358 0.036437687 0.023373794 -0.10628342 0.19661933 -0.061814044
0.014714729 -0.029291585 -0.05497666 0.20073849 0.0062606577 0.0928825 0.01698724 -0.054975696
0.35266045 0.106058925 0.41012165 -0.10717241 -0.15502283 0.07390653 0.024437606 -0.08963652
0.030121462 0.11252023 -0.048066236 0.14260589 0.15280354 0.100886844 0.25450385 0.00084041426

weight f4 [1, 50]
00000000: 2db4 c53d 7325 eabd 8e91 b43d 14d6 d3bc
00000010: 0758 ce3b 6b96 553e ee9a 94bd e61e edbd
00000020: dcef 333d 9c28 a53d 5a7f 5fbd 8033 24bd
00000030: 448c 9abd 2c1f a43d 7ce1 cabd 66f4 da3c
00000040: 4348 63bc 93e9 8dbd aeb1 4c3d 3253 6ebd
00000050: 13cf 53be 719f 003e 7ff0 c9bb 7d84 22be
00000060: b494 bb3d 5829 023f e591 2c3d 21a3 4fbb
00000070: 396f af3c d8c4 42be 4a24 a1bd 456b 26bd
00000080: 1ab2 bd3d e775 95bd 45b2 0abe 5587 9d3d
00000090: befa 7d3c 4323 d63d c341 7abd e905 04be
000000a0: ce38 7f3d fc2b 093e 1313 fb3d 5503 a23d
000000b0: 07c4 173e e687 c0bd b1a1 f73d a8b4 fabd
000000c0: c735 3cbd 1363 0fbe
0.096535064 -0.11432924 0.08816825 -0.025858916 0.006297115 0.20858161 -0.07256113 -0.11578159
0.04392992 0.08064386 -0.05456481 -0.040088177 -0.07546285 0.08013758 -0.09906289 0.026727866
-0.013872209 -0.06929316 0.049974136 -0.05818481 -0.20684461 0.12560822 -0.0061627026 -0.15870853
0.09159222 0.50844336 0.042131323 -0.0031682926 0.02141534 -0.19020402 -0.0786825 -0.040629644
0.09262486 -0.07297879 -0.13544567 0.07691828 0.015501676 0.104559444 -0.06109787 -0.1289288
0.062310033 0.13395685 0.122594975 0.07910792 0.14820872 -0.094009206 0.12091387 -0.12241489
-0.045949724 -0.14002638
